CNN_experiment/saves/circular_resnet_final.pth (torch, 734631 bytes, 15 tensors)

encoder_net.0.weight f4 [128, 512]
0.003286159 -0.041727662 -0.09879051 -0.0043109716 -0.07145868 0.05421703 -0.11797525 0.083195046
0.012375617 -0.022746144 0.055962592 0.023223974 -0.00818357 0.08643699 -0.098014526 0.058594286
0.039822705 -0.048645273 0.049705148 0.039933957 -0.020947486 -0.0069033722 -0.05742571 0.19782802
0.103095226 0.10641635 0.00104869 0.0010616005 -0.20376305 -0.07990745 0.033279628 0.0042818855
0.023663834 0.0966314 0.011785477 -0.14730462 -0.091558844 -0.09466149 0.0008895322 0.07137533
-0.18199296 0.048132498 -0.088387564 0.03933987 -0.10180304 0.054753177 0.06607779 -0.2128197
-0.1525388 0.10120072 -0.092071265 0.052588455 0.018365966 0.00016064076 0.05693393 -0.004027365
-0.03370063 0.018050488 0.037988532 -0.07187033 0.0017728545 0.04634844 0.03195546 -0.12817284
-0.004741135 -0.09126241 0.0009575393 0.009483797 -0.0031410356 -0.026432687 -0.12506813 0.07666413
0.113372594 -0.1577225 -0.09897164 0.007334651 0.08357923 0.007209992 -0.17536552 -0.07708822
-0.033983495 0.019847866 -0.105091184 0.036076453 -0.1332701 0.0004721447 -0.062162124 0.03477763
-0.019244213 0.01897432 0.06909396 -0.041258544 -0.059547335 0.034787368 0.1773519 0.053972855
0.01382351 0.043701712 0.10199163 0.14873046 0.015797403 0.17856996 -0.23906359 0.0009811592
0.0336836 -0.02463127 -0.09288789 0.06640217 0.109121025 -0.17595957 -0.19461454 -0.04237036
0.02140962 0.034792837 0.013775661 -0.09061124 -0.10292152 -0.021131549 0.036929723 -0.025696583
-0.040940452 -0.028365526 0.025167227 -0.1151631 -0.15672372 -0.17509785 0.05689656 0.053405456
0.047466066 -0.060789105 0.0051365905 -0.11638798 -0.0018840478 -0.016676147 0.03285479 -0.007854134
0.058898404 0.0031231756 0.08491853 -0.0138622215 -0.06395511 -0.015272046 0.029090645 0.045261927
0.023929568 0.0027092642 0.036805697 -0.036119528 -0.04960419 0.024261877 0.09313511 0.046151135
-0.18760878 0.083184294 -0.08419179 -0.024538707 0.011350535 -0.036716703 0.02886725 0.046422105
0.12767005 -0.017747995 0.07847725 0.016733268 -0.14628094 -0.04050979 0.05717254 -0.024137162
-0.19824857 -0.08687875 -0.08828244 -0.010044187 0.0029280153 -0.04253163 -0.07852802 0.009208262
0.085812405 0.13410266 -0.13081557 0.01265227 0.11780789 -0.005487661 0.048774656 -0.0030126816
-0.09631066 0.045807894 0.08630249 -0.04790058 0.023265967 -0.024530547 0.062389694 0.046664633
0.0028288546 0.01918091 0.060459085 -0.057315603 0.0046806857 0.0152787855 -0.00082166935 -0.011035533
-0.049427923 0.024373477 0.17210057 0.08256577 0.052806005 -0.012710288 0.076720834 0.09120088
0.06514063 -0.031639963 -0.051384255 -0.077665925 -0.108662404 -0.037921246 0.104291454 0.096627146
-0.048773058 0.12438917 -0.023575233 -0.11613321 -0.042082254 0.055224773 0.09680003 0.017855367
0.03950138 0.08329404 0.006945626 0.047216915 -0.0025397916 0.05916701 0.026135026 -0.026591294
-0.0075839283 -0.063855655 0.17577146 -0.22500698 -0.073284954 -0.10646538 -0.14060172 0.0028456391
-0.1100429 0.074662715 -0.13521706 -0.05092318 0.016119704 0.06513047 0.08572865 0.024941148
0.10463497 0.03510753 0.10827966 0.09368587 -0.017111212 0.027833292 -0.10342425 -0.046368644
00000000: 995c 573b a0ea 2abd ae52 cabd 0d43 8dbb
00000010: ee58 92bd ad12 5e3d 029d f1bd 2a62 aa3d
00000020: 1ac3 4a3c 1f56 babc 0839 653d 3440 be3c
00000030: 6114 06bc e005 b13d d7bb c8bd 9000 703d
00000040: 221d 233d 4440 47bd a097 4b3d ca91 233d
00000050: 109a abbc af35 e2bb 3937 6bbd 6e93 4a3e
00000060: 9723 d33d d1f0 d93d 3374 893a 6725 8b3a
00000070: 43a7 50be 84a6 a3bd 3850 083d 0f4f 8c3b
00000080: a8da c13c afe6 c53d e017 413c 06d7 16be
00000090: 3483 bbbd e2dd c1bd 7f2f 693a 3b2d 923d
000000a0: 5d5c 3abe 9526 453d 8a04 b5bd d822 213d
000000b0: 1d7e d0bd de44 603d cb53 873d 68ed 59be
000000c0: 2233 1cbe 5342 cf3d dc8f bcbd fe66 573d
000000d0: 3974 963c ad71 2839 8d33 693d fcf7 83bb
000000e0: ac09 0abd 9ede 933c dd99 1b3d c030 93bd
000000f0: 205f e83a ddd7 3d3d bae3 023d be3f 03be
00000100: 865b 9bbb c9e7 babd 6003 7b3a ed61 1b3c
00000110: d5d9 4dbb 5d89 d8bc dc11 00be 1502 9d3d
00000120: e42f e83d 0282 21be a5b1 cabd 8357 f03b
00000130: 962b ab3d cc41 ec3b 0593 33be 6ee0 9dbd
00000140: 4732 0bbd fe97 a23c 0c3a d7bd e7c4 133d
00000150: f577 08be 308a f739 b69d 7ebd fd72 0e3d
00000160: 0aa6 9dbc 0870 9b3c 2281 8d3d b8fe 28bd
00000170: e8e7 73bd 337d 0e3d bd9b 353e a412 5d3d
00000180: 017c 623c 9100 333d fde0 d03d cc4c 183e
00000190: 8e69 813c 0bdb 363e 16cd 74be 3d9a 803a
000001a0: d1f7 093d 84c7 c9bc 023c bebd dcfd 873d
000001b0: d87a df3d bf2e 34be 0949 47be 8b8c 2dbd
000001c0: 3a63 af3c ef82 0e3d 4fb3 613c 6392 b9bd
000001d0: 85c8 d2bd 121c adbc 9f43 173d a481 d2bc
000001e0: 2db1 27bd d25e e8bc 802b ce3c a2da ebbd
000001f0: 2f7c 20be da4c 33be 5e0c 693d aebf 5a3d
00000200: c76b 423d fffd 78bd d850 a83b d25c eebd
00000210: 27f2 f6ba 6a9c 88bc bf92 063d a0ae 00bc
00000220: 743f 713d 31ae 4c3b c4e9 ad3d 5f1e 63bc
00000230: e6fa 82bd 9b37 7abc 814f ee3c 9264 393d
00000240: f107 c43c e98d 313b 92c1 163d 12f2 13bd
00000250: c32d 4bbd d8c0 c63c 9fbd be3d f908 3d3d
00000260: 841c 40be 875c aa3d bf6c acbd 6605 c9bc
00000270: 98f7 393c 4164 16bd 037b ec3c 1b25 3e3d
00000280: f0bb 023e 3e64 91bc aeb8 a03d 3514 893c
00000290: acca 15be 98ed 25bd c12d 6a3d 4cbb c5bc
000002a0: ac01 4bbe 7ced b1bd 6dcd b4bd 6090 24bc
000002b0: f2e3 3f3b a535 2ebd 4cd3 a0bd 40de 163c
000002c0: 6abe af3d 3552 093e 84f4 05be 774b 4f3c
000002d0: 4345 f13d d6d1 b3bb efc7 473d 6970 45bb
000002e0: 863e c5bd 0fa1 3b3d 5cbf b03d 6633 44bd
000002f0: 4598 be3c 49f4 c8bc 568c 7f3d 6a23 3f3d
00000300: 4e64 393b 4921 9d3c f2a3 773d c4c3 6abd
00000310: 7060 993b df53 7a3c 4c65 57ba 61ce 34bc
00000320: ef74 4abd e3aa c73c 223b 303e 3e18 a93d
00000330: 1c4b 583d d03e 50bc d01f 9d3d 87c7 ba3d
00000340: 7368 853d e898 01bd 4c78 52bd 500f 9fbd
00000350: 658a debd 4f53 1bbd c296 d53d 74e4 c53d
00000360: 42c6 47bd c0bf fe3d d920 c1bc 40d7 edbd
00000370: 715e 2cbd 5f33 623d 183f c63d 6b45 923c
00000380: 33cc 213d 1196 aa3d 2298 e33b 8666 413d
00000390: a272 26bb 1b59 723d 1f19 d63c fcd5 d9bc
000003a0: 9a82 f8bb c1c6 82bd 6ffd 333e 3b68 66be
000003b0: 6c16 96bd 850a dabd e6f9 0fbe e77d 3a3b
000003c0: 2c5e e1bd c4e8 983d 5776 0abe d394 50bd
000003d0: 780d 843c 2063 853d 8192 af3d 6151 cc3c
000003e0: dc4a d63d eacc 0f3d bac1 dd3d 61de bf3d
000003f0: d02c 8cbc a502 e43c 18d0 d3bd 0ced 3dbd

encoder_net.0.bias f4 [128]
0.025345666 0.005110997 0.03324351 0.039881848 0.010425796 0.022435565 0.0011826062 0.04414013
-0.027332183 -0.006028554 -0.008542031 -0.015444575 0.003907485 -0.032959156 0.0059526814 0.035793755
-0.037758633 -0.010615922 -0.02855663 -0.04179086 -0.026914224 -0.029818157 -0.02764778 -0.01252005
0.031796955 0.000841634 -0.026702166 -0.0010390903 0.019928465 0.007353542 0.015186358 -0.022711644
0.008051476 0.0036628651 0.034131806 0.027810883 0.023783691 0.0236492 0.03902227 -0.036369685
0.022219684 -0.011692451 0.046919916 -0.017806958 -0.0064753164 0.01883407 0.029102666 -0.03255091
2.1757529e-05 0.027767234 -0.002032623 -0.0020548657 0.019744666 -0.012730846 0.02159782 0.043162767
0.019300198 -0.033893522 -0.02857829 0.01457744 0.001691081 -0.025261356 0.007610521 0.032643218
-0.031881366 -0.025137557 0.0035350688 -0.028460259 0.04153359 0.022767128 0.005389769 0.024683995
-0.013354228 0.047780097 0.030039154 -0.036138833 -0.019717624 0.0154471425 -0.01173221 -0.026224155
-0.0143136615 -0.023511885 0.036700174 0.038048696 0.0036852148 0.034720067 0.005305384 0.0042589493
-0.0069831405 -0.015814241 -0.0205893 0.008916452 -0.0054648845 0.019157266 -0.0072614653 0.0038051528
0.017195858 0.02398723 -0.003984697 0.030496277 -0.023368612 -0.0067419014 -0.0002467057 0.024394654
-0.0063274726 -0.00918358 0.013817523 -0.023688883 -0.020843672 -0.028674284 -0.026624681 -0.028137803
0.040345952 0.025673253 -0.026650019 -0.035255194 -0.0116425315 0.018223476 0.027057152 0.0462899
0.027442617 -0.0070532933 0.0059646834 0.0003148698 0.028138667 -0.017050613 0.03573638 0.011870709
00000000: b7a1 cf3c 267a a73b 592a 083d 265b 233d
00000010: f5d0 2a3c caca b73c ae01 9b3a 48cc 343d
00000020: bee7 dfbc 2d8b c5bb e0f3 0bbc 3e0b 7dbc
00000030: 5c0a 803b 2e00 07bd b60e c33b 799c 123d
00000040: cca8 1abd 67ee 2dbc 98ef e9bc e52c 2bbd
00000050: 387b dcbc 3545 f4bc 997d e2bc e520 4dbc
00000060: 863d 023d 1aa1 5c3a 80be dabc 1632 88ba
00000070: 0541 a33c fbf5 f03b 34d0 783c c50d babc
00000080: 57ea 033c ae0c 703b cbcd 0b3d a6d3 e33c
00000090: 04d6 c23c f8bb c13c d1d5 1f3d 61f8 14bd
000000a0: 0e06 b63c b291 3fbc 192f 403d e6df 91bc
000000b0: e42e d4bb e849 9a3c b768 ee3c 1a54 05bd
000000c0: f083 b637 1c78 e33c c135 05bb edaa 06bb
000000d0: 91bf a13c 0a95 50bc e9ed b03c 71cb 303d
000000e0: 731b 9e3c efd3 0abd 051d eabc 37d6 6e3c
000000f0: 43a7 dd3a e7f0 cebc ad61 f93b e5b4 053d
00000100: 0996 02bd 47ed cdbc 9dac 673b 7d25 e9bc
00000110: 201f 2a3d 2182 ba3c a99c b03b 1736 ca3c
00000120: b1cb 5abc 10b5 433d ac14 f63c 5006 14bd
00000130: db86 a1bc 0316 7d3c 7538 40bc 0ad4 d6bc
00000140: d983 6abc ff9b c0bc ec52 163d f3d8 1b3d
00000150: a583 713b a136 0e3d c9d8 ad3b a88e 8b3b
00000160: d4d2 e4bb de8c 81bc e4aa a8bc 4f16 123c
00000170: c612 b3bb b3ef 9c3c 96f1 edbb df5f 793b
00000180: 54de 8c3c de80 c43c 1092 82bb 54d3 f93c
00000190: 886f bfbc 2beb dcbb 4758 81b9 4cd7 c73c
000001a0: b056 cfbb ba76 16bc e462 623c 300f c2bc
000001b0: 59c0 aabc 55e6 eabc 011c dabc 4081 e6bc
000001c0: cc41 253d b750 d23c 2451 dabc c067 10bd
000001d0: 51c0 3ebc 6649 953c f6a6 dd3c 7a9a 3d3d
000001e0: 57cf e03c 501f e7bb 6473 c33b 1c15 a539
000001f0: 1083 e63c baad 8bbc 4f60 123d 5d7d 423c

encoder_net.2.weight f4 [128, 128]
-0.018923542 0.07427778 0.038454786 0.015101938 0.049773913 -0.02613802 0.099271834 -0.057203695
0.037051026 0.10821375 0.03554115 0.012053961 0.032123223 -0.10660428 -0.000789003 0.019050429
0.043866243 -0.017434329 0.05888031 0.027936134 0.049837332 0.093426384 -0.121205665 -0.018925188
0.03939211 0.019322362 0.006293121 0.0044409526 0.08748932 0.020867754 0.030318612 0.17814912
0.18539912 0.03858903 0.031436134 0.16475047 -0.059656445 -0.0025575478 0.03292638 -0.067405276
0.062241573 0.053940628 0.12309399 0.052566197 -0.061234158 -0.006284863 -0.0444936 0.083134085
-0.12060326 0.076103844 0.094757244 0.036788195 0.066435546 -0.029401146 -0.08532692 -0.111684196
-0.05658734 0.08097338 -0.15656482 -0.10241429 0.07512653 0.095175385 0.0750531 0.016276497
0.10237333 0.14792927 -0.02760265 -0.011805111 0.045508213 0.04803967 -0.091359146 0.056013756
0.033095744 -0.07065362 -0.057044126 0.0028725257 -0.09051712 -0.08612871 -0.054762904 -0.058761436
-0.022465216 -0.0968716 -0.060978852 0.02647097 -0.0024962432 0.058268465 0.04369771 -0.019906163
-0.06877918 -0.027960882 0.074858606 -0.061111137 0.14727935 0.11321227 -0.08827373 -0.073608495
0.05420762 0.06225804 -0.0849304 0.024781255 -0.07382602 0.037026804 -0.037657015 0.08284786
0.05667224 0.07612401 0.059297297 0.12308334 -0.05372526 0.0675686 0.0020556862 -0.06530734
-0.017527832 -0.008626476 0.047870662 0.03930698 0.04861127 0.06838855 -0.02790487 -0.05604113
-0.025384238 0.0038758395 0.061455123 -0.04365145 0.08326348 -0.01575887 -0.0008693414 0.0003548227
0.13568361 0.09963365 0.049369283 -0.020800551 0.082543686 0.044396654 -0.06879713 0.0645914
0.10798634 0.04751309 -0.051824346 0.09261971 -0.05144647 -0.13214862 -0.060134508 0.08593663
0.1153275 -0.073032394 -0.119145095 -0.111238 0.18537894 -0.106251076 -0.10005034 -0.0038369307
0.035739236 0.12082215 -0.04110716 -0.10775366 0.106274635 0.03261406 0.15548946 0.13717031
0.020198297 -0.025939154 0.048335437 0.10393906 0.0045955162 0.032590356 0.05564752 -0.011340555
0.08942183 -0.06740374 0.05343778 -0.004568107 -0.051571112 -0.05655929 -0.021296665 0.025933806
-0.10143256 0.022086814 -0.026992228 -0.15726419 -0.002084045 -0.073055 -0.030812131 0.055960003
-0.07962909 -0.058860548 0.07271078 0.021837208 0.072827525 0.0070020654 0.11016388 0.115448736
0.06628186 0.08760686 0.12225036 0.09736237 0.04549683 0.0077290065 -0.11988427 -0.03648846
0.08029025 0.05113527 -0.01262442 0.016906094 0.025211217 0.09975497 0.009125901 0.009797642
0.04947141 0.01789584 0.010816788 -0.03709411 -0.05385303 -0.0007161637 0.0504237 -0.12081474
0.00036432158 0.06266398 0.040843055 -0.024782553 0.14647907 -0.07057732 -0.016173555 -0.12410131
-0.09920448 0.070492625 -0.017378049 0.055537388 -0.05116855 -0.05198891 0.010934974 0.08231934
-0.0147966 0.06905182 0.12049176 -0.044592038 0.00032803608 0.11657222 0.062966265 -0.10046298
0.072115086 0.056245815 -0.035120513 -0.037355818 -0.0037693896 0.029555207 0.09704955 0.09559784
-0.012676167 -0.040896676 -0.054588836 -0.024948658 -0.0635085 -0.04011624 0.118010156 0.15846154
00000000: 8b05 9bbc f31e 983d c482 1d3d 1e6e 773c
00000010: bbdf 4b3d 671f d6bc 084f cb3d 6c4e 6abd
00000020: d1c2 173d 2c9f dd3d 9993 113d fa7d 453c
00000030: a493 033d 5853 dabd 18d5 4eba a50f 9c3c
00000040: 17ad 333d 70d2 8ebc 7b2c 713d 52da e43c
00000050: 3b22 4c3d 5556 bf3d ad3a f8bd ff08 9bbc
00000060: 9f59 213d ee49 9e3c 8636 ce3b 6985 913b
00000070: 9a2d b33d daf2 aa3c bd5e f83c b96c 363e
00000080: 44d9 3d3e 880f 1e3d 2dc3 003d 59b4 283e
00000090: 515a 74bd 889c 27bb d0dd 063d c70b 8abd
000000a0: 05f1 7e3d d9f0 5c3d b418 fc3d a74f 573d
000000b0: abd0 7abd 41f1 cdbb ec3e 36bd 3442 aa3d
000000c0: d8fe f6bd 55dc 9b3d 1610 c23d 38af 163d
000000d0: 5c0f 883d acda f0bc e1bf aebd afba e4bd
000000e0: 20c8 67bd 5fd5 a53d 8752 20be 95be d1bd
000000f0: f0db 993d 50eb c23d 71b5 993d 4a56 853c
00000100: 1ca9 d13d c57a 173e f41e e2bc 396a 41bc
00000110: d266 3a3d 3fc5 443d 811a bbbd ae6e 653d
00000120: 678f 073d d8b2 90bd 1aa7 69bd fc40 3c3b
00000130: 0a61 b9bd 4064 b0bd 114f 60bd d5af 70bd
00000140: f908 b8bc 9e64 c6bd f6c4 79bd a6d9 d83c
00000150: 0398 23bb eaaa 6e3d 5ffc 323d 4012 a3bc
00000160: 19dc 8cbd 380e e5bc 784f 993d ac4f 7abd
00000170: 66d0 163e d6db e73d dbc8 b4bd 0dc0 96bd
00000180: cf08 5e3d 4902 7f3d fdef adbd 0f02 cb3c
00000190: 1932 97bd 6ba9 173d 3e3e 1abd 24ac a93d
000001a0: 2721 683d e8e6 9b3d b9e1 723d 1e13 fc3d
000001b0: 050f 5cbd 6861 8a3d b1b8 063b dbbf 85bd
000001c0: 8796 8fbc 1056 0dbc 0714 443d 5b00 213d
000001d0: 9c1c 473d 4c0f 8c3d c198 e4bc 628b 65bd
000001e0: 9bf2 cfbc cc01 7e3b 5eb8 7b3d ddcb 32bd
000001f0: 0b86 aa3d bf18 81bc 84e4 63ba 7f07 ba39
00000200: a5f0 0a3e ba0c cc3d 7237 4a3d eb65 aabc
00000210: aa0c a93d 44d9 353d 82e5 8cbd 7f48 843d
00000220: f127 dd3d 169d 423d c445 54bd 67af bd3d
00000230: 89b9 52bd f851 07be 9a4f 76bd 8bff af3d
00000240: d330 ec3d 0292 95bd 5802 f4bd c0d0 e3bd
00000250: fad3 3d3e 2a9a d9bd 31e7 ccbd 0475 7bbb
00000260: 4e63 123d 9a71 f73d fb5f 28bd f3ad dcbd
00000270: 84a6 d93d 5296 053d a138 1f3e 6076 0c3e
00000280: e676 a53c 597e d4bc 61fb 453d 00de d43d
00000290: fc95 963b 777d 053d a7ee 633d bccd 39bc
000002a0: cb22 b73d f90a 8abd 93e1 5a3d 0fb0 95bb
000002b0: 3b3c 53bd b7aa 67bd 5876 aebc 2273 d43c
000002c0: e0bb cfbd 68ef b43c ce1e ddbc dd09 21be
000002d0: 7994 08bb dc9d 95bd b969 fcbc 5136 653d
000002e0: 9414 a3bd c217 71bd 64e9 943d f2e3 b23c
000002f0: 9926 953d 9571 e53b 9a9d e13d 6370 ec3d
00000300: c9be 873d 3a6b b33d 665e fa3d ec65 c73d
00000310: e25a 3a3d 9b43 fd3b e285 f5bd ec74 15bd
00000320: 376f a43d 3873 513d a8d6 4ebc a67e 8a3c
00000330: c187 ce3c 554c cc3d ce84 153c 4a86 203c
00000340: 89a2 4a3d 4c9a 923c e638 313c feef 17bd
00000350: ff94 5cbd efbc 3bba 1589 4e3d b86d f7bd
00000360: 6a02 bf39 f955 803d 0c4b 273d c804 cbbc
00000370: 9cfe 153e d88a 90bd 677e 84bc d428 febd
00000380: b82b cbbd 705e 903d 695c 8ebc 2c7b 633d
00000390: 1d96 51bd 53f2 54bd 9b28 333c 0b97 a83d
000003a0: 706d 72bc 0a6b 8d3d 62c4 f63d 24a6 36bd
000003b0: 42fc ab39 6bbd ee3d 75f4 803d 89bf cdbd
000003c0: 13b1 933d 0362 663d 87da 0fbd 6a02 19bd
000003d0: dd07 77bb c31d f23c eac1 c63d cdc8 c33d
000003e0: b3af 4fbc 4683 27bd 8b98 5fbd 2161 ccbc
000003f0: bf10 82bd ed50 24bd 4faf f13d be43 223e

encoder_net.2.bias f4 [128]
0.07567989 0.082657434 -0.09710271 0.053196825 -0.06620263 0.005601932 0.062328212 0.059059564
-0.012947345 0.09524171 -0.046763293 -0.103285715 0.039161365 0.07255192 -0.034709502 0.005597974
-0.07586903 0.05952023 0.102337055 -0.0046056146 0.008348468 0.018365147 0.09437802 -0.025619103
-0.015670491 0.062605806 0.044223174 0.080494836 0.08556989 -0.021468319 0.0831082 -0.06725357
0.06196094 -0.040127285 0.07706267 -0.040192667 -0.017132498 -0.081344604 -0.07868598 -0.018283758
0.015612027 -0.046428256 -0.023798622 -0.0028793933 0.048914865 -0.09787777 -0.008279492 0.0465855
-0.0077848826 0.045912314 -0.0034912697 0.0020528638 -0.036441177 -0.049431752 -0.063812464 0.03718683
-0.09247834 0.0023749205 0.08256787 -0.01491855 0.080538735 0.09119703 -0.06836456 0.0165267
0.01141707 -0.028352447 0.028970694 -0.031600516 -0.022564393 0.093719445 -0.07524972 0.053618312
0.11031938 0.019490264 0.06614569 0.060337033 -0.035545196 -0.073322214 0.0007965401 0.09916619
0.046472076 -0.033078812 0.07257904 -0.081141904 0.03208219 0.012549981 0.0020830636 0.042208042
0.0020574264 0.045960955 0.00899003 0.034658764 0.03510977 -0.044938292 0.06451438 -0.034908656
0.14692408 0.016731422 0.091797456 -0.054174207 0.05147375 0.08295656 -0.07773381 -0.06587908
0.026429255 -0.012887149 0.037563454 -0.031160338 -0.009919476 0.091572545 0.06425693 -0.02312608
-0.0021349983 -0.01117119 -0.09864466 -0.00044718158 -0.032838307 0.03535144 -0.05081301 -0.082210585
-0.05070625 0.030386917 -0.032060217 -0.072386004 -0.021651443 0.013036225 -0.084138766 0.014227845
00000000: 0ffe 9a3d 4d48 a93d c9dd c6bd eae4 593d
00000010: 3f95 87bd 6990 b73b de4b 7f3d 71e8 713d
00000020: 1a21 54bc 160e c33d de8a 3fbd 7687 d3bd
00000030: ab67 203d 1a96 943d 8d2b 0ebd 366f b73b
00000040: 3961 9bbd 7ccb 733d 1796 d13d b2ea 96bb
00000050: 03c8 083c 8172 963c 4349 c13d 27df d1bc
00000060: 675f 80bc 7937 803d 5c23 353d 7ada a43d
00000070: 443f af3d 54de afbc a234 aa3d 3dbc 89bd
00000080: c1ca 7d3d 825c 24bd 08d3 9d3d 11a1 24bd
00000090: 7459 8cbc 0098 a6bd 1d26 a1bd d2c7 95bc
000000a0: 96c9 7f3c 8e2b 3ebd 54f5 c2bc 34b4 3cbb
000000b0: f45a 483d 2474 c8bd b5a6 07bc 70d0 3e3d
000000c0: 5418 ffbb 8d0e 3c3d c9cd 64bb 5789 063b
000000d0: 5843 15bd f378 4abd 1cb0 82bd 3851 183d
000000e0: 4965 bdbd 8ea4 1b3b 5819 a93d ef6c 74bc
000000f0: 7ef1 a43d 82c5 ba3d b802 8cbd 0163 873c
00000100: aa0e 3b3c 6443 e8bc f353 ed3c 8b6f 01bd
00000110: f6d8 b8bc fbef bf3d 861c 9abd e09e 5b3d
00000120: 21ef e13d 0caa 9f3c 6477 873d f723 773d
00000130: d797 11bd f529 96bd e7ce 503a a517 cb3d
00000140: 8159 3e3d a67d 07bd 52a4 943d ba2d a6bd
00000150: 9d68 033d 6f9e 4d3c 0284 083b 57e2 2c3d
00000160: e3d5 063b 8e41 3c3d eb4a 133c 59f6 0d3d
00000170: 43cf 0f3d 3711 38bd 1e20 843d 61fc 0ebd
00000180: 4473 163e 5610 893c 4e00 bc3d c6e5 5dbd
00000190: 24d6 523d 21e5 a93d e732 9fbd 9ceb 86bd
000001a0: 2a82 d83c 9f24 53bc 23dc 193d f743 ffbc
000001b0: 4c85 22bc 638a bb3d 2399 833d e872 bdbc
000001c0: 54eb 0bbb 5e07 37bc 3606 cabd b273 eab9
000001d0: 7681 06bd accc 103d 4e21 50bd 065e a8bd
000001e0: 5bb1 4fbd fced f83c 9351 03bd 1d3f 94bd
000001f0: 5e5e b1bc e495 553c f250 acbd e81b 693c

encoder_net.4.weight f4 [128, 128]
-0.003841633 -0.14397834 0.046054132 -0.025032885 -0.0028239333 -0.04402991 -0.100457594 -0.13084738
-0.13108918 -0.15850991 -0.039261088 0.022768993 -0.1273984 -0.114447065 0.03482811 -0.084105805
-0.028337933 -0.091974 0.052471768 -0.0028126328 0.11709312 0.032412317 0.022762505 -0.030140853
-0.056417413 -0.060508784 -0.06361874 0.05433963 -0.020803323 0.05728065 -0.0103431 0.1209924
-0.03180699 0.082228236 -0.14529684 0.06329616 0.08947439 0.07999626 -0.04518393 -0.0046941102
-0.0894101 0.0025290712 0.03274964 0.030137789 -0.08035023 0.0067487294 -0.04268347 0.09104866
0.06612108 -0.028813269 -0.009735907 -0.08481821 0.037173495 -0.009638521 -0.024271064 -0.09287889
-0.017810145 0.09735318 -0.011698365 0.070890486 -0.163269 -0.10118913 0.07938988 -0.0888183
-0.0330772 0.052203488 -0.066751525 0.062798366 0.08759612 -0.102199495 0.08998118 -0.11995314
-0.08315518 -0.06937801 0.057465427 0.09134922 0.14229983 -0.01767053 0.07446737 -0.031202395
-0.11195273 0.047487307 -0.020522235 0.11424366 -0.05502484 -0.14876412 -0.120755635 0.009007378
0.009811296 -0.064706855 0.012225661 -0.061429936 0.00093159603 -0.032721717 0.059985388 -0.02704716
-0.09748192 0.019375728 -0.11367391 0.106734805 -0.04910496 -0.048391484 -0.01934352 0.044296052
0.023781786 0.048804767 -0.052960787 0.08642197 -0.032530718 -0.11691817 0.07020033 0.019779885
0.042589158 -0.04849516 0.006146543 0.023706147 0.007920661 -0.07464636 0.06937281 -0.018713236
-0.04671185 0.031888895 0.0858691 0.09085648 -0.029816357 0.1215426 0.083035335 -0.054259613
-0.016302636 0.056887228 -0.076716125 -0.007791615 -0.032908484 -0.08267176 0.13662715 -0.013896996
0.059309665 0.1373859 0.0811878 -0.16746627 0.03307279 0.14143881 -0.058555573 -0.16792332
-0.012466591 -0.10207648 0.08927003 0.14074779 0.018923214 -0.045264393 0.23788469 -0.023262987
0.0060859714 -0.05613731 0.2170337 0.08908369 0.049865827 0.07619746 0.014730306 -0.0074633835
-0.021553146 0.008679279 0.12264353 0.033516437 -0.05051398 0.011968768 -0.17819713 0.022118501
-0.1392561 0.022614997 -0.011475894 0.07779286 0.17876545 -0.18342935 0.063210905 -0.0007776535
0.14505121 -0.017300658 0.055109113 0.11245008 -0.0010771052 -0.14390075 -0.111334436 -0.05837338
-0.024945565 -0.027438227 0.19416668 0.0777408 0.017591745 0.14752176 0.010679846 -0.054734994
-0.01874981 0.076558225 0.030035175 0.054743934 0.114939615 0.053923808 -0.073024906 0.03909319
0.21424857 0.15212747 0.0003087831 0.21569315 0.010295789 -0.20198834 -0.048055414 0.20160921
0.10991745 0.043659113 -0.06467298 -0.025337929 0.17507303 -0.05163346 0.052761577 0.163587
-0.030882914 0.014128859 0.14291383 -0.012532868 0.043940548 0.0365193 0.029268285 0.06352752
0.20100762 0.052254263 0.10272871 -0.15765591 0.114080355 0.04414373 0.088202566 -0.08010225
-0.09095513 -0.021504138 -0.045608204 0.15347405 -0.025529481 0.08860298 0.13327277 0.073320575
0.2191024 -0.01988322 -0.013512557 0.09207678 -0.04980926 -0.026528202 0.045420934 0.07305431
0.033817668 0.1349586 -0.205826 -0.08750999 -0.052052837 0.09203494 0.05614071 0.026814403
00000000: e8c3 7bbb 0f6f 13be 42a3 3c3d c411 cdbc
00000010: bd11 39bb b558 34bd b6bc cdbd dbfc 05be
00000020: 3e3c 06be 6c50 22be 3cd0 20bd 0a86 ba3c
00000030: ba74 02be 3963 eabd eca7 0e3d aa3f acbd
00000040: f424 e8bc dd5c bcbd a3ec 563d 2654 38bb
00000050: 85ce ef3d c7c2 043d 6f78 ba3c f3e9 f6bc
00000060: f215 67bd 0fd8 77bd 8b4a 82bd 3b93 5e3d
00000070: bb6b aabc 1d9f 6a3d 1b76 29bc ddca f73d
00000080: 0c48 02bd 4767 a83d b2c8 14be 6ba1 813d
00000090: 593e b73d 14d5 a33d c912 39bd 0dd1 99bb
000000a0: a41c b7bd c6be 253b 7d24 063d 86e3 f63c
000000b0: a98e a4bd 7224 dd3b ddd4 2ebd b877 ba3d
000000c0: 7d6a 873d ce09 ecbc 5b83 1fbc 2bb5 adbd
000000d0: 3c43 183d e3ea 1dbc 1cd4 c6bc 4a37 bebd
000000e0: 95e6 91bc 1b61 c73d 80aa 3fbc 082f 913d
000000f0: fd2f 27be 3f3c cfbd 2997 a23d 5ee6 b5bd
00000100: f57b 07bd 53d3 553d 06b5 88bd 6e9c 803d
00000110: 9865 b33d f84d d1bd 0e48 b83d fea9 f5bd
00000120: 434d aabd 0f16 8ebd de60 6b3d 4d15 bb3d
00000130: 0cb7 113e cac1 90bc 5982 983d 2a9c ffbc
00000140: 7947 e5bd 0d82 423d 3f1e a8bc 94f8 e93d
00000150: ba61 61bd 9f55 18be bb4e f7bd ae93 133c
00000160: 8fbf 203c 0785 84bd 244e 483c f59d 7bbd
00000170: 5a36 743a 3507 06bd 3db3 753d 0192 ddbc
00000180: 9aa4 c7bd d9b9 9e3c decd e8bd c797 da3d
00000190: 4822 49bd 2636 46bd 4d76 9ebc c76f 353d
000001a0: 05d2 c23c 82e7 473d 69ed 58bd 00fe b03d
000001b0: ee3e 05bd cb72 efbd 31c5 8f3d 6d09 a23c
000001c0: f871 2e3d dca2 46bd f168 c93b 6533 c23c
000001d0: a9c5 013c 31e0 98bd 5513 8e3d 804c 99bc
000001e0: ed54 3fbd ee9d 023d 24dc af3d f612 ba3d
000001f0: 6f41 f4bc 54eb f83d 6e0e aa3d 543f 5ebd
00000200: 1b8d 85bc 9502 693d 581d 9dbd ce50 ffbb
00000210: 0ccb 06bd d04f a9bd fde7 0b3e 3ab0 63bc
00000220: b1ee 723d e4ae 0c3e ca45 a63d 477c 2bbe
00000230: 5577 073d 56d5 103e f8d7 6fbd 17f4 2bbe
00000240: ac40 4cbc 790d d1bd 35d3 b63d 3020 103e
00000250: db04 9b3c 2867 39bd 0b98 733e 0592 bebc
00000260: d46c c73b 3cf0 65bd 153e 5e3e 8271 b63d
00000270: 1c40 4c3d 6a0d 9c3d 6257 713c 668f f4bb
00000280: 3990 b0bc 8933 0e3c 882c fb3d 8848 093d
00000290: bfe7 4ebd a718 443c 4f79 36be dc31 b53c
000002a0: 2799 0ebe 1643 b93c 6305 3cbc dd51 9f3d
000002b0: 4a0e 373e e7d4 3bbe b874 813d 71db 4bba
000002c0: 4e88 143e 1cba 8dbc 18ba 613d 3a4c e63d
000002d0: a72d 8dba b85a 13be 4f03 e4bd ed18 6fbd
000002e0: a45a ccbc 22c6 e0bc a1d3 463e 9236 9f3d
000002f0: 901c 903c f20f 173e 85fa 2e3c cd31 60bd
00000300: 3499 99bc 8fca 9c3d 540c f63c 2d3b 603d
00000310: 7665 eb3d 36df 5c3d 158e 95bd 2e20 203d
00000320: fa63 5b3e 4ec7 1b3e 2be4 a139 aade 5c3e
00000330: abaf 283c 08d6 4ebe c1d5 44bd a572 4e3e
00000340: 661c e13d e6d3 323d 4473 84bd 7d91 cfbc
00000350: 5846 333e 9b7d 53bd 861c 583d 5a83 273e
00000360: 2afe fcbc bb7c 673c 0158 123e a956 4dbc
00000370: 01fb 333d 4395 153d 0bc4 ef3c b71a 823d
00000380: f1d4 4d3e 9108 563d 6e63 d23d 8d70 21be
00000390: f6a2 e93d 0ed0 343d 8ca3 b43d a60c a4bd
000003a0: af46 babd 7229 b0bc abcf 3abd 4d28 1d3e
000003b0: 3423 d1bc 7b75 b53d a878 083e 1929 963d
000003c0: 615c 603e 22e2 a2bc c663 5dbc c092 bc3d
000003d0: cb04 4cbd ac51 d9bc 4d0b 3a3d 809d 953d
000003e0: 6584 0a3d 9632 0a3e 0dc4 52be 7038 b3bd
000003f0: 5b35 55bd d17c bc3d cdf3 653d e1a9 db3c

encoder_net.4.bias f4 [128]
0.056976255 0.04226551 0.1710391 -0.037447494 -0.0126074385 -0.038136687 -0.057821676 0.026734386
0.08033485 -0.054591674 0.008324572 0.03738415 0.088139534 0.054179862 0.026488025 -0.0151291685
0.044222992 0.16768312 -0.06629321 -0.11875111 -0.057883255 0.022279114 0.06972758 0.09100497
-0.05066009 0.06203564 -0.059465036 0.037164908 0.07740182 0.005199979 0.055841178 -0.050795548
-0.0732192 0.019272378 0.01870024 0.046453204 -0.022355512 -0.027453575 -0.10387473 0.059095353
0.11396343 0.050458565 0.072938606 0.12896286 0.08018898 -0.027237216 -0.067343965 0.07207072
-0.016990744 -0.068318404 0.06687662 -0.05724756 -0.00537876 0.086858496 -0.058519844 0.067977615
0.067914955 -0.09931549 0.058921922 0.06300961 0.09770339 0.070777126 -0.007302852 -0.069597095
-0.06613586 -0.034309912 0.008289261 -0.005291293 0.055152133 0.008459209 -0.030435815 0.029554859
0.0068812347 -0.045711692 -0.005596995 0.053204603 0.02510018 -0.057485744 -0.010598261 -0.058689944
-0.021468354 0.029527636 -0.033420213 -0.08410518 -0.027384205 -0.10668854 0.07236214 -0.01828377
-0.06854398 -0.10704454 -0.095849246 0.012666576 -0.008715389 -0.058762453 0.086089775 -0.09071785
-0.07861824 -0.037926953 0.010427976 0.01719827 0.022475936 -0.041319408 0.0023988825 0.01535182
0.026996743 -0.07926219 0.008755098 0.092112616 0.040812343 -0.03762351 0.07560098 0.02070402
-0.060214534 0.09129191 0.005705662 0.005264044 -0.085527405 0.038782462 -0.06992961 -0.021862373
0.044221617 0.093305886 0.06961913 0.021253187 -0.044098914 0.15603554 0.00662238 0.09720748
00000000: ef5f 693d 991e 2d3d e024 2f3e 8b62 19bd
00000010: 6e8f 4ebc 3735 1cbd 6cd6 6cbd 1202 db3c
00000020: 9986 a43d 859b 5fbd c963 083c 1f20 193d
00000030: 8082 b43d b4eb 5d3d 6afd d83c 55e0 77bc
00000040: 2b23 353d 20b5 2b3e bcc4 87bd c833 f3bd
00000050: fe16 6dbd b082 b63c 55cd 8e3d d060 ba3d
00000060: f480 4fbd 1519 7e3d 9c91 73bd 3b3a 183d
00000070: d884 9e3d 9664 aa3b b8b9 643d fe0e 50bd
00000080: f3f3 95bd 1be1 9d3c 3f31 993c b745 3e3d
00000090: e822 b7bc 52e6 e0bc 46bc d4bd f80d 723d
000000a0: a965 e93d a4ad 4e3d d660 953d d70e 043e
000000b0: 1f3a a43d 9520 dfbc a2eb 89bd d099 933d
000000c0: 2c30 8bbc 85ea 8bbd 9cf6 883d 6b7c 6abd
000000d0: 4f40 b0bb dee2 b13d 81b2 6fbd d937 8b3d
000000e0: ff16 8b3d eb65 cbbd 1d58 713d 2f0b 813d
000000f0: b718 c83d 99f3 903d c34c efbb ec88 8ebd
00000100: 3d72 87bd 8d88 0cbd aecf 073c 9562 adbb
00000110: 34e7 613d 7f98 0a3c 8854 f9bc 081d f23c
00000120: fb7b e13b 2f3c 3bbd ff66 b7bb 12ed 593d
00000130: e59e cd3c 2c76 6bbd 54a4 2dbc de64 70bd
00000140: 67de afbc f1e3 f13c a2e3 08bd 563f acbd
00000150: d754 e0bc 857f dabd 9a32 943d d8c7 95bc
00000160: c960 8cbd 2b3a dbbd 9c4c c4bd 7887 4f3c
00000170: feca 0ebc e6b0 70bd d64f b03d 48ca b9bd
00000180: 9a02 a1bd 4b59 1bbd 1ada 2a3c 63e3 8c3c
00000190: 741f b83c 8a3e 29bd 9236 1d3b 3386 7b3c
000001a0: 4628 dd3c 3754 a2bd 8b71 0f3c 8aa5 bc3d
000001b0: d82a 273d 1c1b 1abd b0d4 9a3d 7a9b a93c
000001c0: 84a3 76bd 41f7 ba3d 90f6 ba3b 007e ac3b
000001d0: fe28 afbd 5cda 1e3d 4137 8fbd b818 b3bc
000001e0: ba21 353d 2817 bf3d 7994 8e3d 2a1b ae3c
000001f0: 10a1 34bd c8c7 1f3e 8d00 d93b b714 c73d

fc_mu.weight f4 [2, 128]
0.0920403 0.026234245 -0.002164949 0.08440438 -0.080917485 0.0032662624 5.0952072e-05 -0.0065761744
0.056724474 -0.04912814 -0.023860091 -0.07001254 -0.081109285 0.0153439725 -0.05027098 -0.06302748
-0.06608031 0.008962726 -0.07065756 0.03517701 0.065990604 0.08301414 -0.041492965 0.076025546
0.05490734 0.05913518 -0.03264436 -0.09777485 -0.028994268 -0.115576096 0.017811982 -0.021230126
0.08248476 0.09287594 -0.08963661 -0.09746533 -0.044238303 -0.107191265 7.155512e-05 -0.11449397
-0.08115433 0.029756749 -0.11759221 0.005476096 0.049538217 0.08549222 0.03408759 -0.1107428
-0.07572662 0.07540203 -0.031668425 0.10532509 0.106178164 0.088356994 -0.04405962 0.04302501
-0.06375478 0.059770066 -0.10528799 -0.03682549 0.056083895 0.0555211 0.050771743 0.07432197
-0.07133487 -0.08772733 -0.12098195 0.012251102 -0.089654595 -0.047144216 0.07530708 0.06955583
-0.053763036 -0.05904922 0.054963663 -0.035164114 0.10291926 -0.03607393 0.10064434 0.030353114
-0.020459715 0.111331195 -0.02475231 -0.05507865 0.1004682 -0.03683779 -0.032260954 -0.03396496
-0.07087457 0.024612507 0.05526493 0.08038829 -0.11917864 -0.09325027 -0.003566321 0.03482394
0.099950746 0.10499485 0.08968503 -0.07408302 -0.048815127 0.081001244 0.06538546 -0.06947049
-0.0115555525 -0.09697894 -0.040587597 0.038159687 0.03609312 -0.07482863 0.09898898 -0.09541559
0.014314481 0.07925286 0.12078179 -0.080660366 -0.02588586 0.07567673 -0.094131395 0.051633023
-0.02486127 -0.013248863 0.015716428 0.006421524 -0.058426056 0.03317619 -0.0036549324 0.06644564
0.041980073 0.043276932 0.048562054 -0.07403089 -0.015952298 -0.059455607 0.10744033 0.07730902
0.07237951 0.06804785 -0.036664333 -0.013092603 -0.0401434 0.09327883 -0.07872178 0.025195943
0.11295143 -0.1061636 0.039357554 -0.05998646 -0.10482231 -0.06440997 -0.049167067 0.0489337
0.05627447 -0.008341507 0.03528581 0.0481269 -0.05428393 0.057787117 -0.059850447 0.08976644
0.0754984 -0.07947294 0.10052039 -0.022419196 -0.04756423 0.044193942 0.1079819 -0.006169696
-0.0135513805 0.06440187 0.11819007 0.06263219 0.052840874 0.09016853 0.078051016 0.03533316
0.023813097 0.053944204 -0.029755816 0.03170559 0.052377358 0.055168282 0.07581901 -0.07943949
-0.037026677 0.046101294 -0.0046419115 0.004150489 0.036908787 -0.033319376 0.046217017 0.06232008
0.032509778 -0.0069201114 0.093943365 0.056572046 0.021022618 0.04896319 0.096127205 0.07669931
-0.055870865 -0.0034412225 -0.08015449 -0.032959614 0.03886457 0.046710018 0.10678611 0.10597335
-0.08003759 -0.027088258 0.00700323 -0.04611668 0.0073554777 -0.03658917 0.045130305 0.05597466
-0.044124965 0.08192236 0.057337873 -0.07461164 0.017042676 0.09989119 -0.035544656 0.017014785
0.050630637 -0.07970228 0.0691546 -0.057950027 0.036995206 0.06495981 0.090674885 -0.05996372
-0.06379208 0.014654577 -0.08807312 -0.08616804 0.00712647 0.112596236 0.0115774125 0.0708897
0.08628285 -0.077147745 -0.07643778 0.068102606 0.067510635 -0.05363521 -0.023228472 0.104827054
0.018420657 -0.021103451 -0.054429557 -0.0632423 0.06564739 0.08590453 -0.064681396 0.079282865
00000000: a07f bc3d 33e9 d63c d1e1 0dbb 34dc ac3d
00000010: 11b8 a5bd ca0e 563b 5fb5 5538 f37c d7bb
00000020: ec57 683d 973a 49bd 3d76 c3bc bc62 8fbd
00000030: a01c a6bd 4965 7b3c f1e8 4dbd 8d14 81bd
00000040: 1d55 87bd 66d8 123c e9b4 90bd c515 103d
00000050: 1526 873d 5103 aa3d 87f4 29bd 48b3 9b3d
00000060: 85e6 603d bb37 723d 18b6 05bd 2e3e c8bd
00000070: 6385 edbc 29b3 ecbd 6fea 913c cdea adbc
00000080: c5ed a83d be35 be3d 6693 b7bd e79b c7bd
00000090: 3933 35bd 1887 dbbd dd0f 9638 d17b eabd
000000a0: 3e34 a6bd 6dc4 f33c 2fd4 f0bd d370 b33b
000000b0: 96e8 4a3d 8c16 af3d 6e9f 0b3d 1fcd e2bd
000000c0: 8f16 9bbd 616c 9a3d c0b6 01bd aeb4 d73d
000000d0: f073 d93d 83f4 b43d dc77 34bd fe3a 303d
000000e0: de91 82bd 75d1 743d 3ba1 d7bd 53d6 16bd
000000f0: 3ab8 653d 186a 633d 08f6 4f3d 1e36 983d
00000100: 0418 92bd 63aa b3bd 62c5 f7bd d9b8 483c
00000110: d49c b7bd 4b1a 41bd 993a 9a3d 4973 8e3d
00000120: a136 5cbd 98dd 71bd 9421 613d 3f08 10bd
00000130: 55c7 d23d 42c2 13bd 9f1e ce3d 18a7 f83c
00000140: 229b a7bc 9c01 e43d 5bc5 cabc 279a 61bd
00000150: 46c2 cd3d 39e3 16bd 1024 04bd d81e 0bbd
00000160: b026 91bd 2ba0 c93c 7b5d 623d 9ea2 a43d
00000170: ee13 f4bd fff9 bebd f0b8 69bb 8ca3 0e3d
00000180: fab2 cc3d 8a07 d73d c9ac b73d d7b8 97bd
00000190: 5ff2 47bd fbe3 a53d d0e8 853d 8b46 8ebd
000001a0: 8053 3dbc e59c c6bd 2e3f 26bd 554d 1c3d
000001b0: 61d6 133d c13f 99bd bcba ca3d 4069 c3bd
000001c0: 4987 6a3c 534f a23d 715c f73d 4331 a5bd
000001d0: 950e d4bc 67fc 9a3d f6c7 c0bd 267d 533d
000001e0: dda9 cbbc c211 59bc bdbf 803c a66b d23b
000001f0: 2950 6fbd c2e3 073d 9787 6fbb a714 883d
00000200: 4cf3 2b3d 2743 313d 01e9 463d 829d 97bd
00000210: 65ae 82bc b987 73bd ad09 dc3d 3154 9e3d
00000220: b53b 943d ac5c 8b3d 572d 16bd 5b82 56bc
00000230: 686d 24bd f908 bf3d e238 a1bd b967 ce3c
00000240: 1453 e73d 4d6c d9bd 6335 213d 5db4 75bd
00000250: 14ad d6bd 60e9 83bd 6863 49bd b46e 483d
00000260: 0f80 663d d1aa 08bc da87 103d b620 453d
00000270: d458 5ebd 2fb2 6c3d be25 75bd 78d7 b73d
00000280: e89e 9a3d b5c2 a2bd a2dd cd3d 76a8 b7bc
00000290: b6d2 42bd b504 353d 9d25 dd3d 292b cabb
000002a0: 9c06 5ebc 21e5 833d a30d f23d 4e45 803d
000002b0: ac6f 583d 47aa b83d 36d9 9f3d 81b9 103d
000002c0: af13 c33c 99f4 5c3d 78c2 f3bc b9dd 013d
000002d0: a489 563d 23f8 613d ff46 9b3d 2cb1 a2bd
000002e0: 49a9 17bd b6d4 3c3d 2d1b 98bb d300 883b
000002f0: ab2d 173d e679 08bd 0e4e 3d3d 5743 7f3d
00000300: f928 053d 1ac2 e2bb 6165 c03d 17b8 673d
00000310: a037 ac3c a08d 483d 57de c43d 8714 9d3d
00000320: d9d8 64bd 2286 61bb 0a28 a4bd a900 07bd
00000330: 7530 1f3d 0153 3f3d adb2 da3d 8e08 d93d
00000340: bfea a3bd 32e8 ddbc 5a7b e53b d8e4 3cbd
00000350: 3806 f13b 87de 15bd 8eda 383d af45 653d
00000360: 61bc 34bd e9c6 a73d 1edb 6a3d fdcd 98bd
00000370: 159d 8b3c c193 cc3d 4697 11bd 9762 8b3c
00000380: 1262 4f3d f33a a3bd eda0 8d3d 025d 6dbd
00000390: 4988 173d a609 853d c1b3 b93d 859c 75bd
000003a0: 6ca5 82bd c019 703c ae5f b4bd df78 b0bd
000003b0: 2a85 e93b db98 e63d 30af 3d3c 9e2e 913d
000003c0: 10b5 b03d a3ff 9dbd 698b 9cbd 6179 8b3d
000003d0: 0443 8a3d 98b0 5bbd a349 bebc 91af d63d
000003e0: ebe6 963c 25e1 acbc 87f1 5ebd 2e85 81bd
000003f0: 2472 863d b7ee af3d ae77 84bd 0e5f a23d

fc_mu.bias f4 [2]
-0.020447383 -0.02803254
00000000: 4581 a7bc 7fa4 e5bc

fc_logvar.weight f4 [1, 128]
0.111631006 -0.25687253 -0.29719552 0.034018245 -0.0007983049 0.061979044 0.07398647 -0.056491267
-0.11044738 -0.032854576 0.03819277 -0.09505231 -0.12106973 0.0425722 -0.0134670595 0.2130398
0.054386746 -0.31323412 0.1759889 0.1979027 0.09999645 -0.14654738 -0.19220753 -0.1672892
-0.14618754 0.10221701 0.01321608 -0.16339964 -0.1249255 -0.15200822 0.018077778 0.018916737
0.07576685 0.010560012 -0.079541065 -0.11916012 -0.021220256 -0.017987238 0.1685088 -0.18520236
-0.16172695 0.09237491 -0.09054509 -0.43380806 -0.042289216 -0.027342582 0.086890675 -0.15805317
-0.068764344 -0.025657937 -0.08627136 0.043922722 0.023255704 -0.1973265 -0.05883744 -0.10533562
-0.061379034 0.18420315 0.08578387 -0.19672021 -0.3124755 -0.027664166 -0.1636783 0.044731777
0.14911623 0.10116402 -0.15284711 0.041538052 0.05267428 0.07363549 -0.0067703286 -0.017550258
-0.09388948 -0.18779713 0.117372215 -0.13073686 0.103586145 -0.06701155 0.025927018 0.11878205
0.068417475 0.06630691 -0.19460417 0.19626577 -0.11129056 0.2898508 -0.03142024 -0.1533686
0.03630964 0.17250414 0.18903752 0.056275975 0.07982954 0.052896235 -0.16595572 0.17275822
0.012430033 0.12209663 -0.0048993374 -0.16758494 0.055789888 -0.018664537 0.15466736 -0.17559782
-0.10295911 0.032220077 -0.1640733 -0.09573831 -0.30905393 0.060939897 -0.18766358 -0.1428406
-0.067930624 -0.16158625 -0.12525414 0.010596515 0.09138173 0.030111533 0.06370166 -0.043043625
-0.18700811 -0.06281758 -0.12300699 -0.023510875 0.11270037 -0.3635336 0.0815175 -0.30322605
00000000: cc9e e43d cc84 83be 032a 98be b756 0b3d
00000010: 5645 51ba bddd 7d3d 3886 973d 6363 67bd
00000020: 3c32 e2bd 8592 06bd 0670 1c3d c9aa c2bd
00000030: 68f3 f7bd 3060 2e3d f1a4 5cbc 1b27 5a3e
00000040: a3c4 5e3d 3960 a0be 6f36 343e 01a7 4a3e
00000050: f0ca cc3d 8410 16be 0dd2 44be dc4d 2bbe
00000060: 30b2 15be 2757 d13d 4288 583c 3c52 27be
00000070: f1d8 ffbd 0ba8 1bbe d917 943c 46f7 9a3c
00000080: a62b 9b3d e703 2d3c 6de6 a2bd 390a f4bd
00000090: 1ad6 adbc f959 93bc 928d 2c3e b0a5 3dbe
000000a0: c09b 25be 0f2f bd3d b46f b9bd 171c debe
000000b0: 7537 2dbd 8dfd dfbc bdf3 b13d b1d8 21be
000000c0: 52d4 8cbd 9830 d2bc 0aaf b0bd 50e8 333d
000000d0: bf82 be3c f50f 4abe 87ff 70bd 34ba d7bd
000000e0: 9568 7bbd c09f 3c3e 74af af3d 0671 49be
000000f0: cafc 9fbe f69f e2bc 499b 27be ab38 373d
00000100: edb1 183e 152f cf3d f483 1cbe ce23 2a3d
00000110: fcc0 573d 34ce 963d a2d9 ddbb 8fc5 8fbc
00000120: 2149 c0bd e44d 40be d860 f03d e2df 05be
00000130: f924 d43d 5a3d 89bd e664 d43c 0144 f33d
00000140: 761e 8c3d ebcb 873d 5146 47be e5f9 483e
00000150: 4eec e3bd 5367 943e 82b2 00bd a90c 1dbe
00000160: 6bb9 143d eda4 303e 0d93 413e a381 663d
00000170: ab7d a33d b9a9 583d 4cf0 29be 88e7 303e
00000180: 56a7 4b3c cc0d fa3d 9f8a a0bb 639b 2bbe
00000190: f083 643d 5fe6 98bc 1f61 1e3e eacf 33be
000001a0: 3adc d2bd 33f9 033d d502 28be 7212 c4bd
000001b0: 513c 9ebe 1d9c 793d e22a 40be ce44 12be
000001c0: 361f 8bbd de76 25be 9f42 00be 019d 2d3c
000001d0: 5826 bb3d 76ac f63c 0476 823d 834e 30bd
000001e0: 0e7f 3fbe 81a6 80bd 17eb fbbd e199 c0bc
000001f0: 74cf e63d 1321 babe a6f2 a63d 7240 9bbe

decoder_net.0.weight f4 [128, 2]
0.19431496 -0.17580533 0.26924723 -0.38988242 0.049245283 -0.10079273 -0.48629025 0.48230615
0.024371551 0.80670255 0.476082 0.04790897 -0.7832262 -0.12520568 0.16951536 -0.04502382
0.5563534 -0.4200101 0.63754284 -0.14971097 0.6161254 0.5853237 -0.03349797 -0.074050464
-0.70499897 -0.0054616304 0.06269997 0.2788661 0.60501003 0.44610962 0.22650921 0.3534562
-0.32348198 0.32588935 -0.17805901 -0.13543221 0.15308069 -0.33831036 0.03765477 -0.37947008
-0.101016335 -0.12887156 -0.72539335 -0.7239273 0.6975111 -0.20303297 -0.55125415 0.114532955
0.23913442 0.14463228 -0.76548624 0.6850297 0.16615646 0.4588629 0.02930692 -0.08308393
0.018700315 0.41825977 -0.6576582 0.4616391 0.7563111 -0.13286555 0.403393 0.33075178
0.39568514 -0.38453767 -0.6701591 -0.72214454 -0.49092734 0.472197 -0.51296705 -0.55806595
0.010184014 0.7634902 -0.7169965 -0.49229443 0.5779325 0.10716821 0.63155496 -0.393832
0.6543769 0.70904094 -0.091472104 0.418804 -0.6718677 0.034541763 -0.26589447 -0.50760996
0.5367075 0.41435173 -0.5528011 0.031275127 0.16849086 -0.1366735 -0.11901377 0.052929167
-0.4723233 -0.25926232 0.37324125 0.4784566 -0.554432 -0.24838312 0.5987281 -0.004564326
-0.024890453 0.516185 0.2704966 -0.32157424 0.1384429 -0.35410282 0.24527997 0.0045741503
0.40587184 0.23288716 0.031369396 -0.07816683 -0.52076197 0.14806779 -0.2899945 -0.18434632
0.42903882 0.5081486 0.69313633 -0.5496492 0.32257628 -0.24931978 0.3144553 0.024741031
-0.033999063 -0.095358 0.16188663 0.027259951 0.37998375 -0.3312336 0.07069854 -0.80763894
-0.13755713 0.24819899 0.6084055 0.7769594 -0.04840549 -0.54130214 0.17319019 0.6241826
-0.4766399 0.81270796 0.301821 0.7323469 -0.16960038 -0.22760804 -0.5655691 -0.16348603
0.22992326 0.67564976 -0.21248025 -0.27697858 -0.45987055 -0.0066935443 0.68256843 0.32869244
-0.13192235 0.24287882 0.10885392 -0.9388262 -0.2648973 0.31734344 -0.53536093 0.41783825
0.28542775 -0.6005127 -0.008243757 -0.4082409 -0.53768027 -0.33067992 -0.3831408 -0.009886506
-0.5079481 0.09233933 -0.09861424 0.44965687 -0.56759447 -0.6753946 -0.33067453 -0.34851488
-0.017087635 0.3662309 -0.3254263 -0.02254192 0.6654221 -0.60922176 -0.13741757 0.14118557
0.08011138 -0.093021765 -0.40096736 -0.8739415 -0.0076287785 -0.120417394 0.05457294 0.2711992
-0.26509258 0.28071308 0.18844709 -0.33942026 -0.088937484 0.29322025 0.095786236 -0.21105503
0.51284826 -0.83237576 -0.33756733 0.30489373 0.42977986 -0.49659365 -0.58918375 0.7681706
-0.37586194 -0.40954822 -0.00815095 -0.31396854 -0.016299639 0.4755684 0.512214 0.40100434
0.63126695 0.5016495 -0.56692183 -0.27674118 0.50299317 -0.4630215 -0.39186028 -0.046093192
-0.07331325 -0.028532825 0.07177557 0.0025622977 -0.39200997 0.38083038 -0.85356545 0.7175113
-0.28849298 0.5988244 0.61070985 -0.49079332 0.27531368 0.60461 0.4984252 -0.73887175
0.12401046 0.3165809 -0.2474734 -0.10479541 -0.51202726 -0.021659594 -0.71648353 -0.6334205
00000000: 80fa 463e 5006 34be c6da 893e ab9e c7be
00000010: 6cb5 493d 6b6c cebd 09fb f8be d5f0 f63e
00000020: d9a6 c73c 0f84 4e3f 05c1 f33e 323c 443d
00000030: 8381 48bf eb35 00be 6f95 2d3e e66a 38bd
00000040: 2d6d 0e3f 900b d7be 0236 233f d54d 19be
00000050: 65ba 1d3f c6d7 153f 2b35 09bd c5a7 97bd
00000060: d07a 34bf 7af7 b2bb d868 803d 8ac7 8e3e
00000070: f0e1 1a3f 7b68 e43e 08f2 673e 36f8 b43e
00000080: 6e9f a5be f8da a63e 1a55 36be beae 0abe
00000090: 2fc1 1c3e 0437 adbe e33b 1a3d e749 c2be
000000a0: a7e1 cebd e8f6 03be 61b3 39bf 4d53 39bf
000000b0: 1690 323f e0e7 4fbe fe1e 0dbf 4190 ea3d
000000c0: a7df 743e 7c1a 143e e8f6 43bf 1b5e 2f3f
000000d0: eb24 2a3e 14f0 ea3e 1115 f03c e827 aabd
000000e0: 6731 993c 2526 d63e 4a5c 28bf f65b ec3e
000000f0: 9b9d 413f e80d 08be 8789 ce3e 4c58 a93e
00000100: 3e97 ca3e 1fe2 c4be 8c8f 2bbf 77de 38bf
00000110: d45a fbbe cec3 f13e cf51 03bf 69dd 0ebf
00000120: dada 263c 1874 433f 158d 37bf 040e fcbe
00000130: 62f3 133f 027b db3d 96ad 213f 59a4 c9be
00000140: 3f85 273f b583 353f ba55 bbbd 7a6d d63e
00000150: 86ff 2bbf aa7b 0d3d 5223 88be baf2 01bf
00000160: aa65 093f e925 d43e 5f84 0dbf 591a 003d
00000170: de88 2c3e 23f4 0bbe 7ebd f3bd 41cc 583d
00000180: 5cd4 f1be 08be 84be 7a19 bf3e 43f8 f43e
00000190: 41ef 0dbf 2558 7ebe 3f46 193f 5790 95bb
000001a0: 10e7 cbbc b324 043f 887e 8a3e 61a5 a4be
000001b0: fac3 0d3e f74c b5be ac2a 7b3e c1e2 953b
000001c0: 6fce cf3e f979 6e3e 327d 003d ee15 a0bd
000001d0: a850 05bf 159f 173e 297a 94be 48c5 3cbe
000001e0: faaa db3e 0716 023f 6271 313f cfb5 0cbf
000001f0: b828 a53e af4d 7fbe 4900 a13e b4ad ca3c
00000200: 9a42 0bbd 0e4b c3bd 9cc5 253e 4350 df3c
00000210: 3b8d c23e 7397 a9be 65ca 903d 6dc1 4ebf
00000220: c7db 0cbe e027 7e3e 76c0 1b3f d0e6 463f
00000230: d644 46bd c792 0abf c558 313e 6eca 1f3f
00000240: 250a f4be a10d 503f 4888 9a3e 167b 3b3f
00000250: b9ab 2dbe 1512 69be 23c9 10bf e268 27be
00000260: 0171 6b3e 62f7 2c3f 6c94 59be 23d0 8dbe
00000270: 2774 ebbe 8555 dbbb cebc 2e3f 604a a83e
00000280: a716 07be 3ab5 783e ceee de3d ea56 70bf
00000290: 9ea0 87be d77a a23e 6a0d 09bf e5ee d53e
000002a0: 9623 923e 33bb 19bf d310 07bc f404 d1be
000002b0: 6aa5 09bf e14e a9be 082b c4be 03fb 21bc
000002c0: e308 02bf 671c bd3d 43f6 c9bd 6d39 e63e
000002d0: df4d 11bf a9e6 2cbf 2c4e a9be 8b70 b2be
000002e0: 5efb 8bbc 9e82 bb3e 479e a6be d5a9 b8bc
000002f0: 1a59 2a3f f5f5 1bbf 31b7 0cbe f392 103e
00000300: 6f11 a43d 3282 bebd 984b cdbe a1ba 5fbf
00000310: d5fa f9bb 659d f6bd e087 5f3d 9fda 8a3e
00000320: 37ba 87be a0b9 8f3e 46f8 403e 7ec8 adbe
00000330: db24 b6bd f720 963e 932b c43d cf1e 58be
00000340: 064a 033f 9416 55bf a0d5 acbe 081b 9c3e
00000350: 1b0c dc3e 8641 febe bfd4 16bf d4a6 443f
00000360: fa70 c0be 4eb0 d1be 908b 05bc 7cc0 a0be
00000370: d286 85bc b47d f33e 7520 033f 7150 cd3e
00000380: b69a 213f 1a6c 003f ca21 11bf 05b1 8dbe
00000390: 29c4 003f 2711 edbe e9a1 c8be 37cc 3cbd
000003a0: 4225 96bd acbd e9bc 12ff 923d 39ec 273b
000003b0: 88b5 c8be 33fc c23e 4483 5abf d2ae 373f
000003c0: 5ab5 93be 8e4c 193f 7b57 1c3f 4349 fbbe
000003d0: eaf5 8c3e b9c7 1a3f 9631 ff3e b326 3dbf
000003e0: 32f9 fd3d e416 a23e ab69 7dbe fa9e d6bd
000003f0: 3814 03bf 766f b1bc 776b 37bf d927 22bf

decoder_net.0.bias f4 [128]
0.011327879 -0.28381816 0.13037032 0.5748549 -0.25171992 0.33325818 -0.49881774 -0.0046922355
-0.24672996 0.4062223 -0.27536094 0.27888545 -0.008675827 0.25709197 -0.21368931 0.48652658
0.5489722 -0.38740686 -0.651198 0.48245966 0.096854545 -0.303691 0.06819238 0.24140234
0.5881052 0.092148006 0.1768056 -0.5036586 -0.5964805 0.012608593 -0.50966895 -0.46554977
-0.098165676 0.0064866343 0.318498 -0.43904984 -0.41134667 -0.02191153 -0.21718161 -0.63822407
0.43838522 -0.5972809 0.58277094 -0.6541535 0.22338834 -0.55933315 0.16907793 0.30401257
-0.21170019 -0.56047946 0.4800207 0.33505797 -0.20759515 -0.15589128 0.55337936 0.07818639
0.09285674 -0.00026857955 0.17130211 0.41933045 -0.64586014 -0.6034999 -0.3083109 0.5330338
-0.42916843 -0.22879812 0.27045283 -0.18459575 0.40862614 -0.14539258 -0.42036894 0.0014024548
0.04210763 0.05105984 -0.157017 -0.24393223 0.017770415 0.28612363 -0.4327928 0.5107669
-0.20559242 -0.37120593 -0.2766709 0.14348824 -0.5221786 0.2211752 -0.58655643 -0.11600796
-0.0501953 -0.39564937 0.16212334 0.030941632 0.55156475 0.15865152 -0.62605435 0.19594751
-0.02505175 -0.5835855 0.10925677 0.4862246 0.38739052 -0.6273754 -0.12238847 0.51088005
-0.060470667 0.2898932 -0.4086161 -0.3525145 -0.67557806 0.39665422 0.55796856 0.40173936
0.11373354 -0.33111426 0.08494053 -0.40500402 0.3674483 0.0133347055 0.16399628 -0.3235994
-0.72303134 0.5639886 -0.29925436 0.40736812 0.60511374 -0.5551021 0.005011125 0.33827224
00000000: 9198 393c 9d50 91be cc7f 053e b129 133f
00000010: 6fe1 80be d1a0 aa3e 0a65 ffbe 53c1 99bb
00000020: c7a6 7cbe 5ffc cf3e 1cfc 8cbe 13ca 8e3e
00000030: 0e25 0ebc 8fa1 833e 5fd1 5abe 031a f93e
00000040: 7189 0c3f 315a c6be eab4 26bf f404 f73e
00000050: ad5b c63d 637d 9bbe 72a8 8b3d 2d32 773e
00000060: 108e 163f 18b8 bc3d 870c 353e c5ef 00bf
00000070: f2b2 18bf 4694 4e3c aa79 02bf 8a5c eebe
00000080: 160b c9bd d58d d43b 2b12 a33e 24cb e0be
00000090: 089c d2be cf7f b3bc db64 5ebe a762 23bf
000000a0: 0774 e03e 67e7 18bf 7a30 153f 9b76 27bf
000000b0: eabf 643e 7530 0fbf c422 2d3e 89a7 9b3e
000000c0: efc7 58be 957b 0fbf 46c5 f53e b88c ab3e
000000d0: d393 54be f7a1 1fbe 45aa 0d3f 3020 a03d
000000e0: ad2b be3d 23d0 8cb9 d269 2f3e 7bb2 d63e
000000f0: 1757 25bf f87e 1abf edda 9dbe e774 083f
00000100: f7bb dbbe 0e4a 6abe cb78 8a3e ab06 3dbe
00000110: 7237 d13e cbe1 14be 993a d7be 93d2 b73a
00000120: 0d79 2c3d 1f24 513d 10c9 20be 5fc9 79be
00000130: 4393 913c cc7e 923e 0597 ddbe 9fc1 023f
00000140: d286 52be b40e bebe cfa7 8dbe 95ee 123e
00000150: 7fad 05bf c07b 623e 9028 16bf 9595 edbd
00000160: 9699 4dbd 8e92 cabe a903 263e 4e79 fd3c
00000170: 5933 0d3f 8b75 223e 1945 20bf 77a6 483e
00000180: 5439 cdbc dc65 15bf 03c2 df3d 6ef2 f83e
00000190: 0d58 c63e ad9b 20bf cea6 fabd 09c9 023f
000001a0: 17b0 77bd e26c 943e 2136 d1be c87c b4be
000001b0: aff2 2cbf 4316 cb3e 07d7 0e3f c8b0 cd3e
000001c0: 21ed e83d cf87 a9be 4df5 ad3d b05c cfbe
000001d0: 2f22 bc3e cf79 5a3c a4ee 273e d2ae a5be
000001e0: 9518 39bf 8f61 103f de37 99be 8e92 d03e
000001f0: bce8 1a3f 2c1b 0ebf 5d34 a43b 0532 ad3e
